Namespace(image_size=64, conv_dim=32, noise_size=100, num_epochs=100, batch_size=16, num_workers=0, lr=0.0003, beta1=0.5, beta2=0.999, data='cat/grumpifyBprocessed', data_aug='basic', ext='*.png', checkpoint_dir='./checkpoints_vanilla', sample_dir='output/./vanilla\\grumpifyBprocessed_basic', log_step=10, sample_every=200, checkpoint_every=400)
data/cat/grumpifyBprocessed\*.png
204
                    G                  
---------------------------------------
DCGenerator(
  (deconv1): Sequential(
    (0): ConvTranspose2d(100, 256, kernel_size=(4, 4), stride=(1, 1), bias=False)
    (1): BatchNorm2d(256, eps=1e-05, momentum=0.1, affine=True, track_running_stats=True)
  )
  (deconv2): Sequential(
    (0): ConvTranspose2d(256, 128, kernel_size=(4, 4), stride=(2, 2), padding=(1, 1), bias=False)
    (1): BatchNorm2d(128, eps=1e-05, momentum=0.1, affine=True, track_running_stats=True)
  )
  (deconv3): Sequential(
    (0): ConvTranspose2d(128, 64, kernel_size=(4, 4), stride=(2, 2), padding=(1, 1), bias=False)
    (1): BatchNorm2d(64, eps=1e-05, momentum=0.1, affine=True, track_running_stats=True)
  )
  (deconv4): Sequential(
    (0): ConvTranspose2d(64, 32, kernel_size=(4, 4), stride=(2, 2), padding=(1, 1), bias=False)
    (1): BatchNorm2d(32, eps=1e-05, momentum=0.1, affine=True, track_running_stats=True)
  )
  (deconv5): Sequential(
    (0): ConvTranspose2d(32, 3, kernel_size=(3, 3), stride=(1, 1), padding=(1, 1), bias=False)
  )
)
---------------------------------------
                    D                  
---------------------------------------
DCDiscriminator(
  (conv1): Sequential(
    (0): Conv2d(3, 32, kernel_size=(4, 4), stride=(2, 2), padding=(1, 1), bias=False)
  )
  (conv2): Sequential(
    (0): Conv2d(32, 64, kernel_size=(4, 4), stride=(2, 2), padding=(1, 1), bias=False)
    (1): BatchNorm2d(64, eps=1e-05, momentum=0.1, affine=True, track_running_stats=True)
  )
  (conv3): Sequential(
    (0): Conv2d(64, 128, kernel_size=(4, 4), stride=(2, 2), padding=(1, 1), bias=False)
    (1): BatchNorm2d(128, eps=1e-05, momentum=0.1, affine=True, track_running_stats=True)
  )
  (conv4): Sequential(
    (0): Conv2d(128, 256, kernel_size=(4, 4), stride=(2, 2), padding=(1, 1), bias=False)
    (1): BatchNorm2d(256, eps=1e-05, momentum=0.1, affine=True, track_running_stats=True)
  )
  (conv5): Sequential(
    (0): AdaptiveAvgPool2d(output_size=1)
    (1): Conv2d(256, 1, kernel_size=(1, 1), stride=(1, 1), bias=False)
  )
)
---------------------------------------
Models moved to GPU.
Iteration [  10/1300] | D_real_loss: 0.6829 | D_fake_loss: 0.6751 | G_loss: 0.7159
Iteration [  20/1300] | D_real_loss: 0.6326 | D_fake_loss: 0.6507 | G_loss: 0.7634
Iteration [  30/1300] | D_real_loss: 0.5959 | D_fake_loss: 0.6060 | G_loss: 0.8077
Iteration [  40/1300] | D_real_loss: 0.5764 | D_fake_loss: 0.5840 | G_loss: 0.8406
…
